models/best_model_fold.pth (torch, 15477 bytes, 5 tensors)

network.0.weight f4 [64, 13]
0	0xbed26e40	-0.4109974
1	0xbdee8b38	-0.116476476
2	0xbde87506	-0.113504454
3	0xbe2dab4d	-0.16959877
4	0xbc2c0891	-0.010500089
5	0x3e2be73b	0.16787426
6	0xbe35a7cc	-0.1773979
7	0xbbfd74b2	-0.0077348584
8	0xbe47a943	-0.19498162
9	0x3dbc6d8b	0.09200581
10	0xbe91fa50	-0.28511286
11	0xbe2a6bae	-0.16642639
12	0xbdbbab89	-0.09163577
13	0xbe5ddd77	-0.21666513
14	0xbe1d16dd	-0.15340753
15	0x3e44a204	0.19202429
16	0x3dc3cba7	0.09560328
17	0xbe10e9c1	-0.1415167
18	0xbdedd7c9	-0.116134234
19	0xbe58aef2	-0.21160486
20	0x3d5fc381	0.054629806
21	0x3dea3a57	0.11436909
22	0xbe0c26be	-0.13686654
23	0xbe0585d4	-0.13039333
24	0x3e9f06d6	0.31059903
25	0xbe3f27e4	-0.18667561
26	0xbdd77cf9	-0.105218835
27	0xbe84ffe4	-0.2597648
28	0xbd06b54c	-0.032887742
29	0x3c9d2074	0.019180514
30	0xbeb464f0	-0.3523326
31	0xbeca131c	-0.39467704
32	0x3e80bda0	0.25144672
33	0xbe23b4ec	-0.15986985
34	0x3eb46b79	0.35238245
35	0x3e7a439d	0.24439855
36	0x3df3a004	0.11895755
37	0xbe087096	-0.13324198
38	0xbec0494f	-0.3755593
39	0xbe1d808b	-0.15381067
40	0x3dd69872	0.104782954
41	0xbdd77f9c	-0.105223864
42	0x3cc11a94	0.023572244
43	0x3dbe5a1b	0.0929453
44	0xbeb03c55	-0.3442103
45	0x3e563d8b	0.20921914
46	0x3dd20030	0.10253942
47	0x3e8a41cb	0.2700332
48	0x3dddf714	0.10838142
49	0x3e3c8dc4	0.18413454
50	0xbda26b5e	-0.07930635
51	0xbe8f1e16	-0.2795264
52	0xbd02f0b3	-0.03196783
53	0xbd033190	-0.03202969
54	0x3d734a43	0.059396993
55	0x3c9e0e47	0.019293917
56	0xbea63286	-0.3246042
57	0x3e5ae7b6	0.21377453
58	0x3dfc98eb	0.12333854
59	0xbd297dc2	-0.041379698
60	0x3e36d1e0	0.17853498
61	0x3e3ac589	0.18239416
62	0xbca60953	-0.020268118
63	0xbd1b98f7	-0.037987676
64	0xbeb4a8e9	-0.35285118
65	0xbe9369f9	-0.28791788
66	0xbcd5c73c	-0.026095979
67	0xbc9c4a06	-0.019078266
68	0x3e64caf9	0.22343053
69	0x3d215886	0.039391063
70	0x3e7562f2	0.23963526
71	0xbdf83a98	-0.12120551
72	0xbe1e0fa5	-0.15435655
73	0x3c634ae0	0.013872832
74	0xbe2f747c	-0.17134279
75	0xbda1160b	-0.078655325
76	0x3ddb6edb	0.107145034
77	0x3df61d32	0.12017287
78	0xbdd534b7	-0.10410445
79	0x3dba1bb5	0.09087316
80	0xbc04c758	-0.008104168
81	0xbe8ae53e	-0.27128023
82	0xbd8ac792	-0.06776346
83	0x3ee4f713	0.44719753
84	0xbe98a9fd	-0.2981719
85	0x3dedf103	0.11618235
86	0xbcfca63e	-0.03084099
87	0x3dd2e323	0.10297229
88	0xbe86e1b8	-0.26344085
89	0x3ea7034c	0.32619703
90	0xbd49f39b	-0.049304586
91	0xbca92273	-0.02064631
92	0xbec2033a	-0.37893087
93	0x3e41f3dd	0.18940683
94	0x3e5893ef	0.21150182
95	0xbaa7e547	-0.0012809419
96	0xbea62b5e	-0.32454962
97	0xbdf6d216	-0.120517895
98	0xbe9742ec	-0.29543245
99	0x3e83ad58	0.25718188
100	0xbdbcd588	-0.09220415
101	0xbeca10ca	-0.39465934
102	0x3d77204c	0.060333535
103	0xbdbdc70c	-0.09266481
104	0xbc667260	-0.014065355
105	0xbe8869b4	-0.26643145
106	0x3e6150a8	0.22003424
107	0xbdcc7d72	-0.09984864
108	0xbe80fe5f	-0.2519407
109	0xbe8636c2	-0.26213652
110	0x3e8eece9	0.27915123
111	0xbe867ecf	-0.26268622
112	0xbdb9bc4f	-0.0906912
113	0x3e5e0d5c	0.21684784
114	0x3dc99f4d	0.09844837
115	0x3dff9638	0.12479824
116	0xbef6c58f	-0.481976
117	0xbec9ba58	-0.39399981
118	0xbd732cf3	-0.05936904
119	0x3da123f4	0.07868186
120	0xbdea4588	-0.11439043
121	0xbddc45b0	-0.10755479
122	0x3e836ed3	0.2567049
123	0x3c0b12f1	0.008488403
124	0x3d730478	0.059330434
125	0xbe3b2349	-0.18275179
126	0xbe85c101	-0.26123813
127	0xbe8856f6	-0.26628846
128	0x3dd9372a	0.10606225
129	0x3e91255d	0.28348818
130	0xbd51b9b9	-0.05120251
131	0xbe1058e8	-0.14096415
132	0xbe682b74	-0.22672826
133	0x3e3b2dfb	0.18279259
134	0xbe6d0a49	-0.23148455
135	0xbebed2aa	-0.372701
136	0xbc8eab95	-0.017415801
137	0xbe28b0f4	-0.16473752
138	0x3e885075	0.26623884
139	0xbbef5f18	-0.007305037
140	0x3ec5d9d3	0.3864275
141	0x3e4e3640	0.20137882
142	0xbda654ab	-0.08121618
143	0x3c9c0865	0.019046972
144	0x3dcdbe2f	0.1004604
145	0xbd66b83a	-0.056328036
146	0xbdfc6483	-0.123238586
147	0xbe1646c2	-0.1467543
148	0x3ec6f48a	0.38858443
149	0xbd73c1ba	-0.059510924
150	0xbd85164c	-0.064983934
151	0xbe3a6964	-0.18204266
152	0xbcfa022c	-0.030518614
153	0xbdd18555	-0.10230509
154	0xbe48aa90	-0.19596314
155	0xbdf9252e	-0.121652946
156	0x3cdf2721	0.027240338
157	0x3ddc15f0	0.10746372
158	0xbd13ced2	-0.03608591
159	0x3e3731fa	0.17890158
160	0xbd8e9989	-0.06962878
161	0xbdeb4a1f	-0.11488747
162	0xbddfd830	-0.10929906
163	0x3e4f1c11	0.2022555
164	0xbd9670c6	-0.073457286
165	0xbd4bf2a6	-0.049791954
166	0x3ee084e5	0.4385139
167	0xbe3e2610	-0.18569207
168	0x3d5eb8b4	0.054375365
169	0x3d6c9cae	0.05776661
170	0xbe3a3026	-0.1818243
171	0xbe566220	-0.20935869
172	0x3e8416e8	0.25798726
173	0x3d2ba0b1	0.041901294
174	0xbe84408d	-0.25830498
175	0xbdb277c8	-0.08714253
176	0xbea1be98	-0.31590724
177	0xbe0a7cf6	-0.13524231
178	0x3dfa65e8	0.12226468
179	0xbead0e73	-0.33800086
180	0xbe00e6f6	-0.12588105
181	0xbc19293a	-0.009348208
182	0xbe17265b	-0.14760725
183	0x3e11e874	0.1424883
184	0xbddcb796	-0.10777204
185	0x3d747745	0.059684057
186	0x3dc0c7f4	0.09413138
187	0x3e3ddcff	0.18541335
188	0xbdd0ebcc	-0.10201225
189	0xbe21530d	-0.15754338
190	0xbea0b391	-0.31386998
191	0xbe350754	-0.17678577
192	0xbd85f6f7	-0.065412454
193	0xbdf9a027	-0.1218875
194	0x3d4d0861	0.05005682
195	0xbea5202e	-0.32251114
196	0xbe1bbc0b	-0.15208451
197	0x3df1ef58	0.11813229
198	0xbe6b99b8	-0.23007858
199	0x3cd9ea9b	0.026601126
200	0x3eab4859	0.33453634
201	0xbde00040	-0.10937548
202	0xbe0e7352	-0.13911179
203	0xbdcbcf81	-0.099516876
204	0xbe7d7971	-0.24753357
205	0xbe65cbf5	-0.22441085
206	0x3e1edd0f	0.15514015
207	0xbc8094bd	-0.015695924
208	0x3d8ea008	0.06964117
209	0xbdf196b1	-0.1179632
210	0x3e0c4c6e	0.1370103
211	0x3de14323	0.109991334
212	0xbe73d51f	-0.23811768
213	0x3ec4c6e4	0.38432992
214	0xbe5eea8e	-0.21769163
215	0xbbfdd604	-0.00774646
216	0x3db7e1f6	0.089786455
217	0x3e2301b4	0.15918618
218	0x3c991e1c	0.018691115
219	0x3e37ce78	0.17949855
220	0x3d3327ef	0.043739256
221	0xbe1319f2	-0.14365366
222	0x3e56f619	0.20992316
223	0x3e37a0b5	0.17932399
224	0xbe07d97d	-0.13266559
225	0xbeb943ed	-0.36184636
226	0x3edb7c62	0.42868334
227	0x3e5b3c4d	0.21409722
228	0xbd64acbe	-0.055828802
229	0xbe5d86e2	-0.21633485
230	0xbe887983	-0.26655206
231	0xbdc70dfe	-0.09719466
232	0xbe4d3cee	-0.20042774
233	0x3d056020	0.032562375
234	0xbdcf93e5	-0.101356305
235	0xbe6d80e3	-0.23193698
236	0x3e86fed1	0.26366284
237	0xbe209438	-0.15681541
238	0xbb4a3ae5	-0.0030857858
239	0xbe2fce98	-0.17168653
240	0xbdc06ee0	-0.09396148
241	0x3dda88fa	0.106706575
242	0x3e68b654	0.22725803
243	0x3dc26c98	0.09493369
244	0xbdc3bdb4	-0.095576674
245	0x3e46a33e	0.1939821
246	0xbea7e876	-0.3279454
247	0xbd125ce8	-0.035733134
248	0x3d1b78ba	0.03795693
249	0x3e73f958	0.23825586
250	0xbe1dfb3e	-0.15427873
251	0x3e244d82	0.16045192
252	0x3ea7400d	0.32666054
253	0xbe8e2c23	-0.2776805
254	0xbed31213	-0.41224727
255	0x3e58791f	0.21139954

network.0.bias f4 [64]
0	0x3e34ba2a	0.17649141
1	0x3e6a55bb	0.22884266
2	0x3abea0b2	0.001454374
3	0x3d884c83	0.066552185
4	0x3e17bc61	0.14817955
5	0x3e8be68e	0.27324337
6	0x3dd906d3	0.10597005
7	0x3e913728	0.28362393
8	0x3e10d0cd	0.14142151
9	0x3e43b4ba	0.1911191
10	0x3dffdf4a	0.12493761
11	0x3aacc2b2	0.0013180582
12	0x3e332bf0	0.1749723
13	0x3dd08378	0.10181326
14	0x3e4a88ad	0.197787
15	0x3e312bb4	0.17301828
16	0x3e6dba9b	0.23215716
17	0x3e1ecee0	0.15508604
18	0x3e836f6a	0.2567094
19	0x3e3a2de3	0.18181567
20	0x3e3ef2b2	0.18647268
21	0x3e40dda3	0.18834548
22	0x3ea1f29e	0.31630415
23	0x3e6528f2	0.223789
24	0x3e18a4ef	0.14906667
25	0x3dab397b	0.08360573
26	0x3e45061d	0.19240613
27	0x3e5e7d27	0.2172743
28	0x3e25faf8	0.16209018
29	0xbcaa6ac0	-0.020802855
30	0x3e82c262	0.25538927
31	0x3c21ae2c	0.009868186
32	0x3e757bc9	0.23973002
33	0x3e03c8b7	0.12869535
34	0x3e226539	0.15858926
35	0x3e5c4d44	0.2151385
36	0x3c079bb1	0.008276866
37	0x3e65b0ff	0.224308
38	0x3e525702	0.20541003
39	0x3dfe0a79	0.12404341
40	0x3e35a0b8	0.1773709
41	0x3e7a8467	0.2446457
42	0x3e14e37d	0.14539905
43	0x3e8393eb	0.2569879
44	0x3e633b5d	0.22190614
45	0x3e4903eb	0.19630401
46	0x3de27415	0.11057297
47	0x3d8a677a	0.06758018
48	0x3e6b3c6a	0.22972265
49	0x3e4bec94	0.19914466
50	0x3d8ef061	0.069794424
51	0x3e78fb0b	0.24314515
52	0x3e85bf11	0.26122335
53	0x3d891ab5	0.06694547
54	0x3e4a5d60	0.19762182
55	0x3e7b1049	0.24517931
56	0x3e1525de	0.14565226
57	0x3e54328a	0.20722404
58	0x3e8b6ca2	0.27231318
59	0x3dc29d62	0.09502675
60	0x3e4362c5	0.19080646
61	0x3e9c0a1a	0.30476457
62	0x3e37f874	0.17965871
63	0x3e0ba67d	0.13637729

network.3.weight f4 [32, 64]
0	0x3a2ff287	0.00067118596
1	0x3d6e13ed	0.05812447
2	0x3d6ce66a	0.057836927
3	0x3e1f1955	0.15537007
4	0x3bf8e916	0.0075961454
5	0x3e8b9ca5	0.27267948
6	0x3d82e6f3	0.06391706
7	0x3e82fd18	0.2558372
8	0x3e9ccae4	0.30623543
9	0x3d9e21ba	0.077212766
10	0x3e80272a	0.2502988
11	0x3e2afec0	0.16698742
12	0x3e2002a0	0.15626001
13	0x3e4e7c89	0.20164694
14	0x3e1f188e	0.1553671
15	0x3e925ba1	0.28585532
16	0x3d9f3145	0.07773069
17	0x3e797c6d	0.24363871
18	0x3d50a916	0.050942503
19	0x3e02b4b7	0.1276425
20	0x3d8547b5	0.06507818
21	0x3db90667	0.09034424
22	0xbd77f063	-0.060531985
23	0x3d674f54	0.056472138
24	0x3d74b4ee	0.05974286
25	0x3d172fa7	0.03691068
26	0x3e3b27c9	0.18276896
27	0x3e6dffe1	0.23242141
28	0x3e750059	0.23925914
29	0x3ea4bdf9	0.32176188
30	0x3ea730a1	0.32654288
31	0x3e1ce1f4	0.1532057
32	0x3e59c32c	0.21265858
33	0x3e11a715	0.14223893
34	0xbbb7ea79	-0.005612668
35	0x3d9d92b3	0.07693996
36	0x3ec42442	0.38308913
37	0x3e642653	0.22280245
38	0x3e948165	0.2900497
39	0xbd363dcd	-0.04449253
40	0xbd28a430	-0.041172206
41	0x3eaf3301	0.342186
42	0xbd38d6b1	-0.04512662
43	0x3e5ff7bb	0.21871845
44	0xbdd9fb1e	-0.106436
45	0x3e476d37	0.19475256
46	0x3e01020d	0.12598439
47	0x3d15d611	0.036581103
48	0xbd8192e7	-0.063268475
49	0x3e9fe715	0.3123099
50	0x3e731b2c	0.23740834
51	0xbc1ea867	-0.009683705
52	0x3e05c9cf	0.13065265
53	0x3e6dd828	0.23226988
54	0x3e49db10	0.19712472
55	0x3d898e72	0.067166224
56	0x3e02b3e7	0.1276394
57	0x3e79251e	0.24330565
58	0xbcc284cb	-0.023744961
59	0x3e07fd9b	0.13280337
60	0x3e324795	0.17410119
61	0x3e21f8a2	0.15817502
62	0x3d3c94c7	0.046040323
63	0x3dc65e69	0.09685976
64	0x3e6dedd6	0.23235258
65	0x3e83052b	0.2558988
66	0x3e8ef724	0.27922928
67	0xbdc9fdce	-0.098628625
68	0x3d0858ce	0.033287816
69	0x3e46742c	0.19380254
70	0x3d19bbe4	0.037532702
71	0x3d9c873e	0.07642983
72	0xbcaf0d78	-0.021368727
73	0x3e88edfa	0.26744062
74	0x3e13946c	0.14412087
75	0xbdcd54c5	-0.10025934
76	0x3e75870b	0.23977296
77	0x3e01b6e5	0.12667425
78	0x3d590fc5	0.052993555
79	0x3ea252ea	0.31703883
80	0xbd76ea65	-0.06028213
81	0x3e5e8c81	0.21733285
82	0x3e31e922	0.1737409
83	0x3ea1df85	0.31615844
84	0x3e815d54	0.25266516
85	0x3e96e2a8	0.294698
86	0x3c984982	0.018589739
87	0x3e4dbe84	0.20092207
88	0x3e8d4cf2	0.27597767
89	0xbd7a9ba6	-0.061183594
90	0x3e33947e	0.17537114
91	0xbdaa965d	-0.08329461
92	0xbe3dee5a	-0.18547955
93	0x3d940117	0.0722677
94	0xbcf4d7e4	-0.0298881
95	0x3c6a5c7a	0.014304275
96	0x3d5945b1	0.05304498
97	0xbd818161	-0.06323505
98	0x3dbd9977	0.09257787
99	0x3d71683c	0.058937296
100	0x3d900da0	0.07033849
101	0xbd9d67ec	-0.07685837
102	0xbd8d2728	-0.06892234
103	0xbab849ea	-0.0014060114
104	0x3e01f032	0.12689283
105	0xbdf5a20a	-0.11993797
106	0x3cedc831	0.029026123
107	0x3d0cf887	0.0344167
108	0x3e96b8a1	0.29437736
109	0x3e5b26e8	0.2140156
110	0x3dce5227	0.10074263
111	0x3e57ab91	0.21061541
112	0x3e2d428f	0.16919921
113	0x3e42e945	0.19034298
114	0x3d83b784	0.06431487
115	0xbdf60862	-0.12013318
116	0x3e8e4c74	0.27792704
117	0xbd5a2be7	-0.053264525
118	0x3df6c7fb	0.12049862
119	0x3e05f225	0.13080652
120	0x3e1ab447	0.15107833
121	0xbe14fcb6	-0.14549527
122	0x3e34c0f4	0.17651731
123	0x3e5e0b3a	0.2168397
124	0x3e47e70a	0.19521728
125	0x3ea6273d	0.3245181
126	0xbd88994b	-0.06669863
127	0xbe2c5307	-0.16828547
128	0xbd6d66d9	-0.05795941
129	0xbe032712	-0.12807873
130	0xbc6cfcb9	-0.014464551
131	0x3e4f51b6	0.20246014
132	0xbe97795c	-0.29584777
133	0xbc88405e	-0.016632255
134	0xbe0a1834	-0.13485795
135	0xbe861eca	-0.26195365
136	0x3e24da9f	0.16099022
137	0x3e31bb8a	0.17356697
138	0xbbd42811	-0.006474503
139	0x3ddbe31b	0.10736676
140	0x3d9d6710	0.07685673
141	0x3d9d2f2e	0.076750144
142	0x3d2fa41a	0.04288111
143	0xbe054c56	-0.13017401
144	0x3db3d3be	0.08780621
145	0xbe870e9a	-0.26378328
146	0xbdd302a7	-0.1030324
147	0x3e33f534	0.17574006
148	0xbda4cec3	-0.08047249
149	0xbdfc58ce	-0.12321626
150	0x3ddd79d8	0.108142555
151	0xbe7a5af1	-0.24448754
152	0x3d70791b	0.058709245
153	0x3d8b3209	0.06796653
154	0xbe0c4a15	-0.13700135
155	0xbe1e0f24	-0.15435463
156	0x3de23015	0.11044327
157	0xbe81060a	-0.2519992
158	0xbe6ac9ed	-0.22928591
159	0xbe882415	-0.26590028
160	0xbe82a09d	-0.25513163
161	0xbd87ccd3	-0.06630864
162	0x3c01d2d1	0.007923798
163	0xbd127fd1	-0.035766426
164	0xbd473cf4	-0.048642114
165	0xbe889059	-0.2667263
166	0xbdf1a031	-0.11798132
167	0xbe269f58	-0.16271722
168	0x3dcba574	0.09943667
169	0x3de6cc6f	0.11269461
170	0xbe53ddfa	-0.20690146
171	0xbde8c288	-0.11365229
172	0xbcdd3dc4	-0.027006991
173	0xbc624ca0	-0.013812214
174	0xbd1a5a72	-0.03768391
175	0xbda34319	-0.07971782
176	0x3e3703d8	0.1787256
177	0x3e35c8b5	0.17752345
178	0xbe41b66f	-0.18917249
179	0xbe5b5747	-0.21420012
180	0xbd8d081f	-0.068863146
181	0xbe6467a9	-0.22305168
182	0xbe69b5b8	-0.22823226
183	0xbe8dfad8	-0.2773044
184	0x3d8e6bf7	0.069541864
185	0xbe60f720	-0.2196927
186	0xbe27fc2b	-0.16404788
187	0xbc826dc6	-0.015921485
188	0xbe9347f4	-0.28765833
189	0xbd9a77df	-0.07542395
190	0xbe09e1ce	-0.13465044
191	0x3c511a96	0.012762686
192	0x3e4566be	0.19277474
193	0x3d9b7882	0.075913444
194	0x3e8961f9	0.2683256
195	0xbd2ff518	-0.04295835
196	0x3eb7266e	0.35771507
197	0x3dbdebd7	0.092734985
198	0x3dca44db	0.098764144
199	0x3cffae10	0.03121093
200	0xbc9a12ec	-0.01880785
201	0x3e1b596b	0.15170829
202	0x3e8b20ad	0.27173367
203	0x3984aec1	0.00025307204
204	0xbdaf722c	-0.085666984
205	0xbd54d057	-0.0519565
206	0xbd8ef6f1	-0.06980694
207	0x3e836a38	0.25666976
208	0x3e39a536	0.18129429
209	0x3e1a9bac	0.15098447
210	0x3c69fd4b	0.014281581
211	0xbc16ca5f	-0.0092035225
212	0x3d2c1953	0.04201634
213	0xbd0158a1	-0.031578664
214	0x3e119902	0.14218524
215	0x3ddaf187	0.10690599
216	0x3e8a051a	0.26957017
217	0x3e451254	0.19245273
218	0x3d35e206	0.044405006
219	0x3ea7d6a9	0.3278096
220	0x3e5e4c83	0.21708874
221	0x3df61395	0.12015454
222	0x3dff48e4	0.12465075
223	0x3d8a00e7	0.06738453
224	0x3d638ee1	0.05555618
225	0x3d80e657	0.06293934
226	0x3e94e759	0.29082754
227	0x3da7ffd3	0.082030915
228	0x3df02a65	0.11726836
229	0x3e3fbcc5	0.18724354
230	0xbd3becd8	-0.04588017
231	0xbe115fd1	-0.14196707
232	0x3a2049a1	0.0006114487
233	0x3db96435	0.09052316
234	0xbe2bfa74	-0.16794759
235	0xbcde9776	-0.027171832
236	0x3d510b54	0.051036194
237	0x3debd0c4	0.11514428
238	0xbcddf46f	-0.027094094
239	0x3e8f0d0a	0.27939636
240	0xbcdeea18	-0.027211234
241	0xbda2247b	-0.07917114
242	0xbd04bd3e	-0.032407038
243	0x3d7fadfb	0.06242178
244	0x3e3b5532	0.18294218
245	0xbd9974cd	-0.07492981
246	0x3e4c4e42	0.19951728
247	0xbdb092cc	-0.08621749
248	0xbd9fd36e	-0.07803999
249	0x3e689cf6	0.22716126
250	0xbd2ec31f	-0.04266655
251	0xbdf40e04	-0.11916736
252	0x3e45b725	0.19308145
253	0x3dcaedae	0.09908615
254	0xbbde5003	-0.0067844405
255	0x3e89ba1e	0.2689981

network.3.bias f4 [32]
0	0x3e99830c	0.29982793
1	0x3e5785c8	0.21047127
2	0xbd8f8916	-0.07008569
3	0x3e9ae33e	0.30251497
4	0x3f1c9775	0.61168605
5	0xbdba4ac4	-0.09096292
6	0xbd51f22f	-0.051256355
7	0x3eb0c83d	0.3452777
8	0x3eae8a5e	0.3408994
9	0xbd6e0519	-0.05811033
10	0x3e8e83a4	0.2783481
11	0xbd657604	-0.05602075
12	0x3ec1586f	0.37762782
13	0x3eac824c	0.3369316
14	0xbdb1cb3d	-0.08681343
15	0x3eebf2e3	0.46083745
16	0x3ea8494e	0.32868427
17	0xbd75dc75	-0.060024697
18	0xbd9ec78a	-0.07752903
19	0x3ebbac2e	0.366548
20	0xbda78103	-0.08178904
21	0x3eae35a9	0.34025314
22	0xbdc66cfb	-0.09688755
23	0x3ebe809f	0.37207505
24	0x3f0047fb	0.50109833
25	0xbd5c185d	-0.053734172
26	0x3ec702e2	0.38869387
27	0xbd505b8c	-0.050868556
28	0x3eaa1474	0.3321873
29	0xbda2b46e	-0.079445705
30	0x3ecfec78	0.406101
31	0xbd6753ed	-0.056476522

network.6.weight f4 [1, 32]
0	0x3eadab36	0.33919686
1	0x3ee7876b	0.45220503
2	0xbddb91ec	-0.10721192
3	0x3f037b6d	0.5136021
4	0x3e8cfa12	0.27534539
5	0xbeb05b7a	-0.3444479
6	0xbec146e0	-0.37749386
7	0x3e8e7304	0.27822125
8	0x3eaf489d	0.34235087
9	0xbcc92fa0	-0.024558842
10	0x3ee89e01	0.45433047
11	0xbe531f7d	-0.2061748
12	0x3eab43e0	0.33450222
13	0x3e911e2f	0.2834334
14	0xbe05bead	-0.13061018
15	0x3e9b6b08	0.30355096
16	0x3eb4d268	0.35316777
17	0xbe8e2db5	-0.27769247
18	0xbe43fbf8	-0.19139087
19	0x3e87771a	0.26458055
20	0xbe3c96b1	-0.18416859
21	0x3e903d1b	0.2817162
22	0xbe92823e	-0.28614992
23	0x3eabcc0d	0.33554116
24	0x3e64650f	0.22304176
25	0xbd25324c	-0.04033117
26	0x3eb49d3a	0.35276204
27	0xbdd93737	-0.106062345
28	0x3e976f25	0.29576984
29	0xbeb1aa39	-0.34700182
30	0x3e747ef3	0.23876552
31	0xbe463d62	-0.19359353
